hw1/model21.npy (npy, 1432 bytes, 1 tensors)

array f8 [163, 1]
0	0x3fcdcf7a040bdf4b	0.23289418408944082
1	0xbfd4d37644336d66	-0.3254066148781106
2	0x3fce1a578ad4a8c8	0.23517889288752358
3	0xbfd29f744da6dd58	-0.290982318717814
4	0x3fa4fd39ff2d14de	0.04099446525519011
5	0x3fd4bb6023d34942	0.32393649576728845
6	0xbfaa602b5bb3a40b	-0.05151496405034813
7	0xbfd322d3819f7b0a	-0.2990006223534897
8	0x3fbd68784d9e3209	0.11487533469171053
9	0xc00355697e2df0ff	-2.416705117966671
10	0x4008b0bde27f0d6c	3.086299676420529
11	0xbfb3cf0605420e47	-0.07737767818803674
12	0x3fbaff622b72a70b	0.10545934258211902
13	0xbffb53cd8345f036	-1.707959664140629
14	0xc0006f81574afaa4	-2.0544459171063227
15	0xbfd4bed7d272f9e7	-0.3241481356780284
16	0x3fe9fc987d3f1021	0.8120844312875343
17	0x401415caad172405	5.021280960595509
18	0x3fc8bd4c8e4d8dd6	0.19327694843660365
19	0xbfa788b1c366a2e8	-0.04596477041497399
20	0x3fcd7d6c547998cb	0.230390111205628
21	0xbfd8eb58f6a6a5a5	-0.3893644722653227
22	0x3fe06173bd553a71	0.511896009245744
23	0xbfd484d75f79bbfc	-0.3206079895380183
24	0xbfde371619f87118	-0.4721122029893805
25	0x3fb46f81881551e3	0.07982644626947137
26	0x3ff0fc8399adb8ac	1.0616489413328436
27	0xc00ee443cb22ca78	-3.861457430838808
28	0x401a5ee763eceb3f	6.592679559073814
29	0xc00c2731a0f66810	-3.519137628097276
30	0x3fff5a523c9750e0	1.9595510832632996
31	0x400411764cecedcb	2.508526421528335
32	0xc0162cf9d2a1ff4a	-5.543921748292471
33	0x3fdbe3389ba94f4e	0.43574347688012416
34	0x3fe4503a6385a4da	0.6347934669294333
35	0x3ffee88f9cb96aae	1.931777584270701
36	0xbfb057d05b4c3793	-0.06383993367145839
37	0x3fae1a17a9bfc7d5	0.05879281947262852
38	0x3fd4ed92d041442b	0.3270003350963317
39	0xbfe1662ae5d5fa85	-0.5437216271382829
40	0xbfc708892ccbcee7	-0.17994799315749008
41	0xbfab6e3153063373	-0.053575078377526085
42	0xbfdb172fc2d2db95	-0.42329019571064325
43	0xbfbf0e323d434c99	-0.12131036754299131
44	0x3fad0807d2e82e4f	0.056701893325307944
45	0xbfb00c5427487d4a	-0.06268812140523497
46	0xbf939c5cc4c10a5c	-0.019151162632861193
47	0x3fc82596a343e7c2	0.18864710781036648
48	0xbfdee18fad114feb	-0.4825171651948483
49	0xbfcdf78b446c82a4	-0.2341169437504692
50	0xbfac0bb4f9870938	-0.05477681680669594
51	0xbfdbed063b9431b1	-0.43634181802988353
52	0xbfd4e216a44f79db	-0.32629934354727447
53	0x3fd23fb18adbd836	0.2851375442545562
54	0x3fb609eb799181bd	0.08608886449793025
55	0xbfa7bc498868587f	-0.046358392621343995
56	0xbfccf88e0612672e	-0.22633528992155888
57	0x3fdee4099a5d2391	0.48266830515472586
58	0x3fcf6cafa8e8fade	0.24550433871805571
59	0xbf55eb165a03cd0f	-0.001337787463907617
60	0x3fdc7dac80c26909	0.44517052244340555
61	0x3fcf459f342296a3	0.2443121914449665
62	0xbfb11614f317b9a0	-0.06674319205169477
63	0x3f75de19082e69f6	0.005338762074553296
64	0x3f7ad4581a08e856	0.006550163409480522
65	0xbf87137ab47bf514	-0.011267622597638062
66	0xbf920398ffe5c0ec	-0.017591848963491794
67	0x3f955c9f13f2c231	0.020861135094209785
68	0xbfb01a041ea22c2c	-0.06289697406661848
69	0x3f6ef06cb77df405	0.0037767527937249156
70	0xbf834e8e3596ea98	-0.009427176485464359
71	0x3fb422936d365f2c	0.07865258613889797
72	0x3f616bd0ceb6251e	0.002126605822642915
73	0x3f48a4b52bb58589	0.0007520565626856639
74	0x3f81d59714b8bd49	0.008708172149538245
75	0x3f859dc5a3feb34d	0.010554832522609603
76	0xbf99832c212c50aa	-0.0249144454238183
77	0x3f922109ed9a7909	0.017704157950555053
78	0x3f09c0ee0f15f85a	4.912115572162984e-05
79	0xbf99aab459d3dfca	-0.025065248472827574
80	0x3fb17d8a30e194e9	0.06832183545482774
81	0xbfa0540b531b2f27	-0.031891206641004914
82	0xbf943bd9134013b3	-0.01975955181116591
83	0x3fcb358ce762a719	0.21257172868836774
84	0xbfce3d2031ad0b22	-0.23624041009505797
85	0xbfa0e8416e962cc2	-0.03302196955618221
86	0x3fe0574df533841a	0.5106572903715716
87	0xbfe1fb6ee074a1c7	-0.5619425186060248
88	0x3f72a22538f6a71f	0.004549165153926698
89	0x3fef7fdc34889b22	0.9843579317137918
90	0x3fa866ceb6e9cf4a	0.04765935881451229
91	0xbf97ba8efd1edaf4	-0.023172601889849667
92	0xbfaff16a9cb01728	-0.06238873636907122
93	0x3f8abf9f1d86c5f5	0.013060801590515128
94	0xbfa91b17adf87e9d	-0.049034824358611596
95	0x3f95ad58d6b6e11b	0.021169078927159562
96	0x3fa2ed209ddb669e	0.03696538855520014
97	0xbf99c91a10be77cb	-0.025181205055211636
98	0xbfb56ffe51eb3dc1	-0.08374013423894323
99	0x3fa17163868f2612	0.034068212676697254
100	0xbfa136555df0460b	-0.03361765643797917
101	0x3fae20f0185f6ab7	0.05884504601973133
102	0xbfb2dd3effc724cd	-0.0736884474237229
103	0xbfa48b34ead9acb9	-0.04012456290078021
104	0x3fba2004764db9f6	0.10205104721328681
105	0xbfb2f62286e6abbf	-0.07406822007639756
106	0xbf98bc5252a8c086	-0.024155889792553363
107	0x3f943b673b0a45e2	0.01975785539486264
108	0xbfd05e36f28ef0e2	-0.2557504051908507
109	0x3fd360a42e1d59e9	0.3027735185945902
110	0xbfb9ed571cb76cd9	-0.10127777529799022
111	0xbfb1de76f814dcf9	-0.06980079228093307
112	0x3f7a9d2a623b10b1	0.006497541009313477
113	0x3fb0aba4d5017d4c	0.0651190776857124
114	0xbfc538ea2eed945c	-0.16579940120132874
115	0x3fc9f7e4f5f580ea	0.20287763604847636
116	0x3fbdd7da596ad517	0.1165749042800893
117	0x400076a862178d66	2.0579383529126742
118	0xc00f684d3fe44006	-3.925928591874256
119	0x3ff2d9e67ec74453	1.178198333004066
120	0xbffaf24973173873	-1.6841520782213848
121	0x3fd631f3cc1c7b15	0.3467988484643894
122	0x4006097c0b72b79a	2.754631127775565
123	0x3fdf6a2b90413b67	0.4908551129091649
124	0xbffc7ca4f7702936	-1.7804307618667514
125	0xbfe61a31972d89c7	-0.6906974747365034
126	0xbf368957a34720c0	-0.00034387960047555996
127	0x3f65ef8c2c28a7f1	0.002677701734929088
128	0x3f51fc04e9b51466	0.0010976837136962513
129	0x3f53fa422e2350fd	0.001219334248664216
130	0xbf4909436d2e98cb	-0.0007640437346381422
131	0x3f672670cbad09af	0.002825947097705859
132	0xbf5885a80b456443	-0.0014967099242169247
133	0xbf34d9249a7f43e9	-0.00031811851158375246
134	0x3f511bb87c5b5490	0.0010442067736467255
135	0xbf629b055cd5ed7e	-0.002271185373215522
136	0xbf47e501b432c758	-0.0007292040176223131
137	0x3f32068231ad3b25	0.000275046144158008
138	0xbf582ec5deac4427	-0.0014759952852652165
139	0x3f3eada2d504081c	0.0004681131877221094
140	0xbf44d22e821e70be	-0.0006354071704097947
141	0x3f37e393e6e47102	0.0003645168389014992
142	0xbf6861f91554775a	-0.002976404658183646
143	0x3f430a85c8301ad7	0.0005810883743614059
144	0xbfcac8ed73264a74	-0.2092568218473222
145	0xbfb1d86734cd8832	-0.06970830001003561
146	0x3fd0f84fab754b5f	0.2651557135006239
147	0x3f85aec75bfb87fc	0.01058727025469252
148	0xbfbccf6551c23c3f	-0.11253960844099796
149	0xbfad4c415aca64c0	-0.0572224067047471
150	0xbfbc9a4aa7f3157e	-0.11172930336313944
151	0x3fc0810c8dc235ef	0.12893826410110829
152	0xbfcdd94b2b8bc597	-0.23319377542752015
153	0x3fab5303d059370e	0.053367728408018164
154	0x3fc15a8981891ded	0.1355754740236387
155	0xbfcfd8afc70b9155	-0.2488002511883091
156	0xbfc31e8acad8e357	-0.1493695726838051
157	0xbf7bdd6458a230b5	-0.0068029327177436165
158	0x3fd0f0fadfe4b664	0.2647082506617606
159	0x3fa8f5dc4c7b7776	0.04875076707479213
160	0xbfd4b1866f8be05f	-0.32333527463152295
161	0x3fd10027ce43e7f4	0.26563449042407616
162	0x3ff015672869b4ce	1.0052253321294304
