hw1/model.npy (npy, 1432 bytes, 1 tensors)

array f8 [163, 1]
0	0x3faedb4d07600f90	0.060266883039758246
1	0xbfc0d9d92476a496	-0.13164819984857407
2	0x3fc60d57512f1e64	0.17228213752808863
3	0xbfccfaa834e908e2	-0.22639944633016912
4	0xbfa90b926b127880	-0.04891641194375129
5	0x3fc5a4e36998ad6e	0.16909449249338188
6	0xbfb52027cdeddca4	-0.0825219037777623
7	0xbfce71d9bb44dc7c	-0.23784944194787616
8	0x3fd369e75d1780d0	0.30333885279652595
9	0xc000870c78ca02bb	-2.0659417568825496
10	0x3ff3121bdb2fcb0b	1.1919210969906
11	0xbfc5c3eb7f4ce1fc	-0.17004150119625183
12	0x3fe4a8876fbff449	0.6455723936666199
13	0x3fe063f617bed9b6	0.5122023071078761
14	0xbfe831ca9d8b20a1	-0.7560780598660309
15	0xbff77d13a1b0422a	-1.4680363002736478
16	0x3fd85b1e876155fc	0.3805614778587765
17	0x4009fa68f068f598	3.247270467951875
18	0x3fc3c765847913c0	0.1545225998726476
19	0xbf925d77fe44d3b0	-0.01793467988428049
20	0x3fc413e123e8a354	0.15685667279583504
21	0xbfde3c83ec76e9da	-0.47244356243359464
22	0x3fe28ae9f8473367	0.5794572686369123
23	0xbfc9d9ae11435270	-0.20195556490820676
24	0xbfd99689e8fc3bc0	-0.399813153767294
25	0x3fcb97ce659e3338	0.21557025873007674
26	0x3ff0a2a667e20523	1.039709478180449
27	0xc00d92fcddbbd90d	-3.696771366400873
28	0x400dd4ce6b6ccac8	3.7289093391967505
29	0xc004ae1796f05012	-2.5850059310996665
30	0x40021395e48ed10d	2.2595632415851754
31	0x400d3cbe27fa5da6	3.654659569099482
32	0xc012b923541c4599	-4.680798830247476
33	0x3fe45eb342872180	0.6365600871441046
34	0x3fea555555538450	0.82291666665345
35	0x3fe804917b84bda8	0.7505576527091096
36	0xbf6c20f6b229c380	-0.003433687046076661
37	0x3f4361db9a57d000	0.0005914995460316597
38	0x3fc4b1235c440f3c	0.16165582661789724
39	0xbfd4ce1844005756	-0.32507902756457463
40	0xbfd3b89a2df5f18d	-0.30814222801543495
41	0xbfbfd3da21f76f18	-0.12432635621319965
42	0xbfb39b36b130f884	-0.07658712221106795
43	0xbfcdfbfa5be8a180	-0.2342522572300929
44	0xbfc76fab584c8ac0	-0.18309537707781054
45	0xbf6127bb79635900	-0.0020941411595273296
46	0xbfa05325887ff348	-0.03188435832269093
47	0x3fa002a147634928	0.03127006527360471
48	0xbfd407ed05592c39	-0.3129837562780185
49	0xbfd70757b6bbd6b6	-0.3598231586941937
50	0xbfa4712e8859a300	-0.03992600836210691
51	0xbfbce43046cf9c40	-0.11285688141616479
52	0xbfdd576ad5755ce6	-0.45846052976180685
53	0x3fc0a6378b13fd1c	0.13007253924295348
54	0x3fa358207dbe2e58	0.037781730031465954
55	0xbf9d40f038dde260	-0.028568032713766178
56	0xbfaa8eee9f57fc94	-0.05187173552621363
57	0x3fd279649777e995	0.2886592368301078
58	0x3fd5ba62ffd0464a	0.33950114232820694
59	0x3fa73c593c2a8f90	0.04538229808284122
60	0x3fb41fdd082f4ae0	0.07861119699309027
61	0x3fd6a77b4afd9f91	0.3539722664195262
62	0x3fc12c55519e4076	0.13416544423353444
63	0x3f2175880844cd00	0.00013320241499457236
64	0x3f8adae223e8ca46	0.01311279937826727
65	0xbf724ad80058e286	-0.0044659078171710494
66	0xbf9b90c7e130e8ec	-0.026919482345172094
67	0x3f83d32fb463210a	0.009680149738770644
68	0xbfa2a59953411706	-0.036419669545052755
69	0xbf97a108cd5a95bd	-0.023075234922222288
70	0xbf7879f25e0f57e8	-0.005975672481289586
71	0x3fb6c1ad5151ab61	0.08889277682616871
72	0xbf5a90dd8980c2c0	-0.0016214526604125118
73	0x3f83d79e0d6b20da	0.009688601288317878
74	0xbf492629d113c260	-0.0007674888785498928
75	0x3f6dd5ad7f6b9aa8	0.003641928541912993
76	0xbf87a23a9fbc02bb	-0.011539896011073627
77	0x3f8f40ca4979e810	0.015260296218219366
78	0xbf80ba54b4f14546	-0.00816789796059204
79	0xbf9200b56ec645f0	-0.01758082855810089
80	0x3fb1fd5fc961af3a	0.07027243296186905
81	0xbfa3484787b30e58	-0.03766082316863323
82	0xbf96c7bc239f4ac2	-0.022246303247650763
83	0x3fced194403b6c46	0.2407708467133906
84	0xbfd044ccef96179c	-0.2541992511472644
85	0xbfa39c505aa6b108	-0.03830195528584751
86	0x3fe139cafb760a2f	0.5383047973012419
87	0xbfe2ec95fc51a936	-0.5913801124673117
88	0x3f830a36441611ba	0.009296821549249813
89	0x3fef500a143c8990	0.9785204310649522
90	0x3fa1ebadcf8d0c9d	0.03500121267873022
91	0xbf524f25e979beb0	-0.001117503188563445
92	0xbfafd4f69834c34a	-0.062171655731055056
93	0x3f9ff47526429ba2	0.031205969295708187
94	0xbfae6d6cebd9b710	-0.05942860011133011
95	0x3fa3c3786d05b878	0.03860069590415177
96	0x3f9d861938a234b0	0.02883185775913394
97	0xbf9b44c760c6af4c	-0.026629557878251206
98	0xbfb607d1983aff1b	-0.0860568043381104
99	0xbf83f085cbab6128	-0.009736104276655569
100	0x3f905af66de2e2e0	0.015971994835782932
101	0x3fa21b99cf6ed2d0	0.03536682755603737
102	0xbfb23e1c90c7204a	-0.07126024756064556
103	0xbfa56e69464bdbd6	-0.041857995825857294
104	0x3fb57b2d130662c8	0.08391076769329253
105	0xbfb6220e9068f497	-0.08645716691622095
106	0x3f6a7a491f27c130	0.003232138458081256
107	0x3fa857798c29386c	0.047542379722117584
108	0xbfd187b02a74950a	-0.2739067473033435
109	0x3fd36eadb2a42462	0.3036302799742484
110	0xbfb49d80657295dd	-0.08052828289745358
111	0xbfa3d76d9d11b188	-0.0387529615626106
112	0xbf9b6fe5fceb3130	-0.026794045984204817
113	0x3fb17f2075de07b8	0.06834605100269087
114	0xbfbd305df1f3ada8	-0.1140192714407734
115	0x3fc3bb416a849c8b	0.15415208531451116
116	0x3fbd28ff42e43128	0.11390681632127964
117	0x400003961062717c	2.0017510681192885
118	0xbffc427f82e62788	-1.76623488552511
119	0x3ff7853ba21eb50d	1.4700275738535453
120	0xc0020893cb00a444	-2.2541881427355595
121	0xbfec3d8a73f45e7c	-0.8825123085725433
122	0x4000a2b9e2a35d98	2.07945611058285
123	0x3fd63ac093541f14	0.34733595264013783
124	0xbff4885032d945e0	-1.283279608371565
125	0xbfebd9322c0d2e90	-0.8702631817227076
126	0x3f1b74b620357600	0.00010473596198808804
127	0x3f62753ddcb16d36	0.0022531707996173113
128	0xbf2ac4dac3fbb500	-0.00020423098066350148
129	0x3f630dc41e9a95cc	0.0023259001216781924
130	0xbf38975a36e2e6e0	-0.00037523224353784405
131	0x3f5c665f93145b5a	0.0017333920807851206
132	0xbf5f76e582a6b190	-0.0019204369842596748
133	0x3f35cda9c8db6e30	0.0003326930535487464
134	0x3f47254d4731c1f0	0.000706351026009298
135	0xbf656454e6284402	-0.002611318415127518
136	0xbf4bf0c888f39bff	-0.0008526782202381565
137	0x3f45a99aba8aecc0	0.0006610875617164766
138	0xbf55131e3ada656a	-0.001286296388036535
139	0x3f41c7fff061d426	0.0005426406576264405
140	0xbf1a7b24c6844f60	-0.00010101711234638882
141	0x3f3fc2a6b2e4f2f0	0.0004846245746142194
142	0xbf63365411520c4a	-0.002345241732258728
143	0xbf1f8d15462c1e20	-0.00012035791727892835
144	0xbfcb89d7d387b558	-0.21514413670176213
145	0xbfb0376ffd965246	-0.06334590855687691
146	0x3fd44229062cfe2d	0.31653810122586173
147	0xbf933bf321c497d0	-0.018783377586394867
148	0xbfb63eb6fa56944a	-0.08689445125362841
149	0x3f93b4da5217d968	0.019244586239403644
150	0xbfbbd6ef388f7c9c	-0.1087483895384928
151	0x3f8d59037a6c2548	0.014329936193024154
152	0xbfc57383a62555d0	-0.1675877152689922
153	0x3f91c0160d5280f0	0.017334312976005017
154	0x3fbda3d1a254e286	0.11578092778371216
155	0xbfc43ae6271aacaf	-0.1580474558771576
156	0xbfcc4d0c438993df	-0.2211013154766581
157	0x3f8b149a703fb5b0	0.013222891378940144
158	0x3fcc7e8d2c6ad1a6	0.22261204403697582
159	0x3fb60c6006d8e3ca	0.08612632910889242
160	0xbfd76efe78b56542	-0.3661495379252139
161	0x3fce49ecd21a6669	0.2366310144323507
162	0x400084cc0c7692bb	2.0648423169789942
