hw2/model_discrimitive.npy (npy, 1064 bytes, 1 tensors)

array f8 [117, 1]
000000 cf b8 d9 5d 93 b4 0d c0 57 a1 3c e3 f5 7a e8 3f
       -3.7131717044895605 0.7650098264903517
000010 07 84 e8 7f 8a 4b bb 3f 1f 63 64 8c 51 e4 da 3f
       0.10662141440163007 0.42018545828027415
000020 80 85 c9 2d 76 74 02 c0 ce b8 f0 05 8b 63 d0 3f
       -2.306866033279846 0.25607562618359914
000030 27 94 ba eb c1 54 dd 3f 5d fc 51 89 9e e5 be 3f
       0.45829818745034107 0.12069121220155084
000040 6a 7d 6f 6f f3 77 87 3f 58 11 5a 5b 8b 1b be bf
       0.011459256971589855 -0.11760779361981599
000050 a8 bd 5d cb 6a 72 c0 3f 6e be 20 9d ec f8 b5 3f
       0.1284917347906973 0.08582953296785842
000060 0d 2b 41 28 ca cd a5 bf 8f a4 1a 69 4b 88 8f bf
       -0.04258567563427649 -0.015396680016538404
000070 e6 79 a3 0c a6 8e c7 bf c0 08 33 32 14 7e ac bf
       -0.1840407907211123 -0.055649405601359
000080 0b 87 11 64 48 43 bd bf 94 4d cf e9 3b 76 c1 bf
       -0.11430790370061687 -0.13642071644299547
000090 3d 3d a5 b8 c9 f1 a4 bf d2 4e aa d1 3a bf b8 bf
       -0.04090719584439249 -0.09666793459683312
0000a0 31 b8 b3 24 50 b0 bb bf 58 4c 56 72 33 a7 c3 bf
       -0.10815907379193913 -0.1535400684630044
0000b0 34 23 90 5b 36 90 bc bf 59 ac 85 8d ce f4 b3 3f
       -0.11157550559449875 0.07795420603876958
0000c0 11 a5 82 ab e9 df b9 3f d3 1a fa 4c 94 a6 d9 3f
       0.10107288777603098 0.4007921935775986
0000d0 9d 8d d6 28 6f e3 cf 3f 52 38 dc 55 b0 ac 53 bf
       0.24912824148223658 -0.0012008401894863141
0000e0 69 69 64 fa c4 fb d3 3f ac 82 05 83 b7 73 3d c0
       0.3122417874561934 -29.4520189178899
0000f0 9e 99 ef 52 40 da d0 3f 0d 19 e5 84 77 c4 c1 3f
       0.2633210000916736 0.13880819310197304
000100 e8 91 5b c2 b7 f6 db bf a7 6a 2f 6b 99 e3 ad 3f
       -0.4369334600471846 0.05837706979192108
000110 a6 74 ef f5 97 9e e1 3f 12 f4 1b 3e e1 13 c1 bf
       0.5506095698762195 -0.13341918499637068
000120 ed c2 2d 12 cc 36 e6 bf ce eb 69 a8 26 53 ce bf
       -0.6941891055158443 -0.23691256736114358
000130 d7 32 68 91 28 53 be bf 8f 45 3a c0 76 6f c3 bf
       -0.11845639753318991 -0.15183910738100478
000140 e2 b7 25 0f 83 0c 9e bf b2 db ae 5c 1a fa c3 bf
       -0.029344604300994954 -0.15607003713168194
000150 78 07 0c 39 9d 46 b9 3f ec 5b c3 76 ca dc cd bf
       0.0987337364458919 -0.23330050276737724
000160 a5 4b 70 a7 e9 fc cc bf 0d 17 f8 56 66 c5 c7 bf
       -0.2264682834216646 -0.18571166273630305
000170 85 ca fc ba d3 69 d8 bf c4 e1 dc 68 66 fe db bf
       -0.38145917187208794 -0.4374023460436798
000180 7b 99 7f 2e b6 76 88 3f 18 ae 1a 50 42 f7 9e 3f
       0.011945174497623104 0.030240093363927384
000190 d7 3f 69 71 63 45 aa bf df 54 bb 19 e4 d0 a1 3f
       -0.05131064185536587 0.034796836987575956
0001a0 f6 7e 85 bd 0d b9 c0 bf 34 7a e7 3d a4 89 ac bf
       -0.13064738992670016 -0.05573762183825118
0001b0 7c 02 8e d5 1e de ae bf 05 38 ed 1c db a9 cb 3f
       -0.06028839451665122 0.2161210910075512
0001c0 05 f0 9a 4c 65 51 aa bf e8 88 8e 6e 19 64 c6 bf
       -0.05140224990961432 -0.17492978952674965
0001d0 6f 0c f5 44 58 db b5 3f 32 5e f7 d5 e7 24 d2 3f
       0.08537818606878188 0.2835025395884002
0001e0 16 10 d2 62 50 f3 a3 bf 97 58 e1 f8 17 20 b0 3f
       -0.03896571356111182 0.0629897101037805
0001f0 b5 af 79 ba 3b cf 83 3f c8 bc 01 f2 0a 7c 87 bf
       0.009672609928394008 -0.011467061529599212
000200 a2 61 cb 26 54 32 ba 3f df 2b a5 63 46 80 b9 3f
       0.10233045527582488 0.09961357052559049
000210 96 28 78 79 48 a1 c9 3f 3a 31 25 8d d2 a0 b9 3f
       0.20023446971055553 0.10011020608834978
000220 19 b6 21 c9 c3 21 a6 3f c5 2a c5 2e 7d 83 c6 3f
       0.04322635488720667 0.17588772567463287
000230 08 79 79 59 eb 28 a7 3f 5a fe ef b9 61 cd b2 3f
       0.045234064743214175 0.07344637670029766
000240 cb d7 5d 38 29 64 c1 3f 14 2a 76 da fa 0c c6 3f
       0.135869171641103 0.17227111498898806
000250 5a 0b 82 52 45 38 bb 3f a8 b7 93 c3 4d f7 cb 3f
       0.10632737411837692 0.21848461198481783
000260 85 f2 d0 89 e3 72 ad 3f 55 cc ec f0 ae f9 bf 3f
       0.05751715714766185 0.12490361577947458
000270 90 b5 73 e9 08 03 ba 3f 6a c0 38 b3 6c 4e 9f bf
       0.1016088075591226 -0.030572603644202813
000280 fc 07 dd bc 93 44 9d 3f b8 8d fe 00 d2 0b b2 3f
       0.02858191337805492 0.07049286388660547
000290 a0 ef c1 4d 17 95 b0 3f aa 52 44 ac 44 3c c2 3f
       0.06477494858148569 0.1424642411372095
0002a0 34 0d 24 db 10 8b ba 3f 7d 8a 0c 17 67 24 ba 3f
       0.10368447637670358 0.10211796105117261
0002b0 f8 23 4f c4 8f 84 c6 3f 0d 91 79 80 6f 1e c3 3f
       0.1759204586544738 0.14936631940066328
0002c0 1a 3e 8b a2 b8 b4 c2 3f 2f d4 22 cc 4c b4 ad 3f
       0.14614017426218667 0.05801620475669044
0002d0 1e b7 de 76 e4 1a d5 3f 35 0a a4 67 f5 18 b2 3f
       0.3297663842048325 0.07069333820621966
0002e0 6e 7f d4 9d 0e cc be bf 1c 5b 76 e3 d6 0a b0 3f
       -0.12030116418145351 0.0626653962448071
0002f0 48 7d 67 b4 0b 75 d0 3f b4 26 74 02 90 81 c0 3f
       0.2571439039001757 0.12895393485842066
000300 94 8d 30 85 d0 9d b9 3f fe c2 82 2f fa 02 c2 3f
       0.10006430865956012 0.14071585960257232
000310 51 39 c0 10 f3 29 ab 3f 3c dc c3 2e ef 44 b8 3f
       0.053054424090179915 0.09480185405469482
000320 e3 ed f5 05 1e 28 be 3f d5 c4 77 97 1d fe ad 3f
       0.11779964108966783 0.05857937311146492
000330 4b 68 74 4d 11 53 ad 3f 42 6c 86 c5 ae c4 ee 3f
       0.057274380402490076 0.9615091188346769
000340 25 35 2b 99 a2 c8 b3 3f 4d 32 4e d2 12 e5 b4 3f
       0.07728019942733917 0.08162038454447292
000350 af e5 7e d9 40 f3 d6 3f 2e f9 43 8b 0f f9 e2 bf
       0.3585970043164605 -0.5929029197721201
000360 74 9a ac 32 3a c6 b4 3f c7 06 3c 72 eb c8 72 bf
       0.08114970910228597 -0.004586143218831835
000370 36 b1 ed 9c a1 52 6a 3f 0f 60 0b 42 9b 99 23 40
       0.0032132297996466897 9.800012649429872
000380 7c 82 0e 64 af d4 f1 bf 7a ef b8 68 b1 43 ea bf
       -1.114425078245545 -0.82076330617518
000390 b8 9c 69 a2 04 a0 c0 3f e4 1b f6 71 03 c0 a4 bf
       0.1298833649663942 -0.04052744642381592
0003a0 4e 78 4c 14 88 23 89 bf
       -0.012274802321879854
