hw2/model_generative_W.npy (npy, 1064 bytes, 1 tensors)

array f8 [1, 117]
0.0 0.5976079167775324 0.08206234598432789 0.2380404433455632 1.4235175303387446 0.39276914039410166 0.43871699175854567 0.11648532885697518
-0.03954705377829268 0.0015207962836932543 0.04725709015135444 0.10219260667017886 -0.11515746495974384 -0.05899321821368279 -0.026031078707080164 -0.03193578272239657
-0.13035509448835822 -0.11729300652916222 -0.049740806393113145 -0.08574022124284196 -0.11583250352530369 -0.19089932271565538 -0.13485094217077767 -0.0024469443977261696
0.0008319216785918375 0.2908901584357115 0.28411853871459686 -0.24507476224268107 0.3244533709317983 -0.051507235573807 0.27236908028833334 -0.04978999201904397
-0.16021807100807414 0.03860180782876897 0.29637716371979567 -0.017977349205877412 -0.17616661496223773 -0.05370654134275679 0.0021801001883264897 -0.03733548951716677
-0.02061077805644966 -0.10209907539459831 0.3006153014410734 -0.17778533769122992 -0.12204186954197563 -0.13910141065461423 -0.09140798324869427 0.0032772632689087077
0.1467510404846958 0.07990741971609695 0.06632576833229424 0.08604154570066637 -0.11726993920626701 -0.031782223795753906 0.35821887577704564 -0.3056863438161397
-0.06937809930556896 -0.14179239830790621 -0.18595959906213833 0.36364814055877687 -0.03630262799798972 0.01620291176802033 -0.026828011168750082 -0.018796536641376316
0.029169553520827923 0.02652179504551918 0.018088170587069574 -0.037039066259807074 -0.03585125516454452 0.005243638205825886 -0.015802531418853315 -0.0018732716938793875
-0.003487791578888101 0.021855068423765067 0.02601043931067328 0.025055373010926665 -0.036472819703913605 0.010618532171981401 -0.004753063546448448 -0.009612105142740577
-0.002347457556846377 -0.00042225958361493256 -0.0031634921056030727 -0.01696433981970483 -0.006837638124951828 0.01592638923158086 0.029951560114273704 0.00022787297827980835
0.022036140642228655 -0.01700012032905227 -0.046186642654534524 -0.01864557619199181 -0.026360159204700147 -0.013593703536830454 0.028030945934777472 -0.0085765290774075
-0.009283566313045558 -0.015241786634652801 -0.003203894099364975 -0.04135282743659987 -0.006165290020237672 -0.009677656289267566 -0.009830298118677496 0.049857652414893754
-0.03715355491627231 0.015155524551900876 -0.039360407128325975 -0.07640376794410104 -0.08979767973379937 -0.01762107719727971 0.0011819685022683708 3.959885542845998
-2.289611783083324 0.3799060030990012 -0.017283389243714215 0.02253497852100181 -0.0292801144328821
00000000: 0000 0000 0000 0000 737c 4ca3 9a1f e33f
00000010: 7d58 3cb4 0902 b53f 51b3 a5f7 1b78 ce3f
00000020: cb66 6151 bac6 f63f 89b9 372d 2123 d93f
00000030: 6d5b f36e f013 dc3f 328e e785 fbd1 bd3f
00000040: fc07 43ed 823f a4bf 808d 5993 aeea 583f
00000050: b98b 68d1 1432 a83f d399 8a6f 4b29 ba3f
00000060: 1572 e4a9 f57a bdbf 05be d3ed 5b34 aebf
00000070: 92f2 e71e e4a7 9abf 4ace ba0c e359 a0bf
00000080: ffe4 d8c9 79af c0bf c29e 171b ea06 bebf
00000090: 8b5d 7881 a077 a9bf 6f97 3036 12f3 b5bf
000000a0: d679 74ee 32a7 bdbf 8d36 f295 636f c8bf
000000b0: d5a8 3ab1 cb42 c1bf cd47 3a45 9d0b 64bf
000000c0: 185d 8133 aa42 4b3f bb6a 4dc1 f19d d23f
000000d0: 31db fd85 ff2e d23f 1b22 741c 9c5e cfbf
000000e0: 71a8 4e12 d8c3 d43f 32ff 9708 285f aabf
000000f0: 5beb 11b9 7e6e d13f 4da0 c7e6 127e a9bf
00000100: f39b 9a97 0682 c4bf eecf 61bc 9dc3 a33f
00000110: f14b 5dec d7f7 d23f b3ce a17b a768 92bf
00000120: 7c75 f4ac a08c c6bf b4fc 4b7d 6c7f abbf
00000130: 0e03 5960 00dc 613f eaaa e924 a31d a3bf
00000140: ac4e cae6 fd1a 95bf 128a c53d 2a23 babf
00000150: 3e76 17f6 473d d33f 87cb 8b81 abc1 c6bf
00000160: 82ec 6cce 223e bfbf 7865 cb34 13ce c1bf
00000170: 417e a57a 8366 b7bf 8a58 ee51 ebd8 6a3f
00000180: 2593 c4f3 bcc8 c23f 016d 630a d074 b43f
00000190: e388 debd b9fa b03f e9b3 e198 d106 b63f
000001a0: 0de0 b119 6705 bebf 6005 9877 c245 a0bf
000001b0: 536d 11dd 0eed d63f 608b 6174 5d90 d3bf
000001c0: 9a78 935b c3c2 b1bf fbe4 c6d8 4026 c2bf
000001d0: 28b1 2c2e 86cd c7bf c5df bcd9 0246 d73f
000001e0: 883b 0510 4296 a2bf 5811 9300 7f97 903f
000001f0: 9894 585a cd78 9bbf 9071 9c38 663f 93bf
00000200: 18bd a499 9fde 9d3f 3629 6889 8728 9b3f
00000210: 20b7 7694 b485 923f 483f 85d4 c8f6 a2bf
00000220: e98f e780 185b a2bf 287f b269 5a7a 753f
00000230: 964c 8dee 892e 90bf a1db 592a 12b1 5ebf
00000240: d0e4 87d8 6d92 6cbf 4314 87d0 2c61 963f
00000250: c596 c608 7ba2 9a3f 871d af9e 1da8 993f
00000260: 1376 a4bf 90ac a2bf 880e 4843 2bbf 853f
00000270: 850d cec7 f277 73bf 3fca dee9 82af 83bf
00000280: ccd2 eead f93a 63bf 4cdd 1f1a 57ac 3bbf
00000290: 029f 4fe4 52ea 69bf 493c e592 195f 91bf
000002a0: 598b 0e82 c801 7cbf 4370 92e3 014f 903f
000002b0: 04b4 9e2c 9fab 9e3f 0098 8cfa 25de 2d3f
000002c0: 34c0 8d5d a490 963f 5989 5dc3 7a68 91bf
000002d0: fe30 6d8f c6a5 a7bf a0b6 d66f d317 93bf
000002e0: a260 ce56 28fe 9abf 5047 fa00 04d7 8bbf
000002f0: 9664 43f0 24b4 9c3f 528c 343f 9290 81bf
00000300: a262 a32d 4303 83bf 7b0d 07f9 1537 8fbf
00000310: 4445 0d8c 0d3f 6abf 73e9 dfa2 322c a5bf
00000320: 6bcd 1d70 c640 79bf 935a 1d0a e1d1 83bf
00000330: 6eec 6f47 e821 84bf 6794 2735 f186 a93f
00000340: a84f 976e ca05 a3bf 98e0 6e12 dc09 8f3f
00000350: fc2e bf1a 0c27 a4bf 3570 9c84 328f b3bf
00000360: 209e b611 fbfc b6bf e963 2179 420b 92bf
00000370: fe2d fa03 895d 533f 056a b378 d8ad 0f40
00000380: 7108 87fb 1f51 02c0 7150 b744 6150 d83f
00000390: a55e 439e bcb2 91bf 7818 0ecf 6813 973f
000003a0: 5443 a637 9bfb 9dbf
