myhw1/model21.npy (npy, 1432 bytes, 1 tensors)

array f8 [163, 1]
000000 fa 23 b9 78 a6 37 f7 3f f7 1a d4 95 5a 3a 00 c0
       1.4510864940405086 -2.0284930901865397
000010 55 17 c8 36 e0 77 f7 3f 3b a2 e3 8d 0a 0c fd bf
       1.4667665614992604 -1.8154397528216026
000020 ec 25 49 1e a5 5e d0 3f 14 e1 bd c2 b9 2e 00 40
       0.25577667195884035 2.0228152479359185
000030 9b a5 f9 bb fd 97 d4 bf 47 0f 95 2c 47 e7 fd bf
       -0.32177680355979427 -1.8689643613333418
000040 56 87 ad 40 5b fe e6 3f dc 32 30 f8 ad 12 cf bf
       0.7185493720282732 -0.2427575551850144
000050 58 a7 27 c1 64 d5 d3 3f cd 0a ce 3e 89 d9 7f bf
       0.30989951002867633 -0.007775817980361932
000060 88 8d 50 78 0c ad 85 3f e0 2d b7 22 e0 f3 c5 bf
       0.01058397047206118 -0.17150499053091917
000070 68 df 7e 6d e5 69 ca bf a5 ef fa da 23 ad a0 bf
       -0.2063566956182925 -0.03257095382784251
000080 1c 5e 5b 63 55 e3 b4 3f 0e 72 92 32 57 25 e0 3f
       0.08159383464532549 0.5045581805930526
000090 5c 25 8e 41 b2 21 b0 3f 8a f8 73 81 c6 d5 8e bf
       0.06301416492910533 -0.015056181741325742
0000a0 78 0b 67 87 1c 36 b3 3f 18 7c 05 07 3d 41 c0 bf
       0.0750444250652843 -0.1269909176143933
0000b0 b6 0a 10 6e 17 5a c5 3f f3 4d 64 ef 70 c5 ba bf
       0.1668118750968312 -0.10457521290327758
0000c0 db 1d 13 d1 f5 b4 c3 bf a9 ce 5f 19 3c a5 9a 3f
       -0.15395996769642192 0.02602094559547533
0000d0 53 48 f7 7b ea 21 d6 3f 43 4e f8 b7 95 d0 d9 bf
       0.345820065556045 -0.4033560082036482
0000e0 54 70 67 21 70 08 e6 3f 80 a8 7a 7e 55 94 d7 bf
       0.6885300304816249 -0.368428586497096
0000f0 09 42 70 d4 c0 59 ca 3f ce a2 58 2c 0c e4 d0 3f
       0.20586405156110768 0.26391891794859823
000100 71 f6 73 c6 3d a9 e2 bf ee 12 7c 11 c7 77 a7 3f
       -0.5831593395266294 0.04583570564685667
000110 7f 03 d0 7b 80 16 b1 3f 1c 96 6d 4f 70 fb c9 3f
       0.06674960158126274 0.20298580053638282
000120 02 4b b7 be b7 c5 c2 bf 37 e5 31 c1 82 54 c1 3f
       -0.1466588669996654 0.1353915637335292
000130 d6 47 b5 5d a8 12 e8 3f 67 7f dd 3a 01 05 f4 bf
       0.752277548812567 -1.251221876089369
000140 5f a8 03 7e 37 80 da bf 23 8f b2 e3 11 8f bf bf
       -0.4140757303818016 -0.12327682312985337
000150 e9 14 0a 11 ce 29 ef bf d6 85 ad 97 96 dc d1 bf
       -0.9738531430054113 -0.27908863842284626
000160 88 49 7f ce 68 ac c0 3f 64 aa 30 70 c7 e1 d8 bf
       0.1302615173613726 -0.38878045993866395
000170 80 eb a5 d9 93 69 be bf 2b 9d 0b 4e 6b bc f2 3f
       -0.11879848540949745 1.1710007713935038
000180 53 68 0f c4 60 fc 07 c0 eb 9e 57 95 f9 49 f7 bf
       -2.9982314412309647 -1.4555602868730897
000190 1f 62 89 77 e3 c9 d5 bf 7d 04 90 41 e8 b0 05 c0
       -0.3404472987508899 -2.711380493362013
0001a0 4b 4f 21 53 90 37 00 c0 8a 35 7e 54 29 56 fc 3f
       -2.0271307463207555 1.7710355091579424
0001b0 47 ac 02 c7 e5 ef e4 3f db f0 bc 85 0f 8f d6 bf
       0.6542843710825615 -0.3524817281757017
0001c0 75 0d d6 43 b5 8c fb bf a2 bc ec 11 1b 65 0d 40
       -1.7218525552605943 3.674368038212905
0001d0 72 a0 f2 0f ac e8 fd 3f 04 09 62 b6 4e d9 84 bf
       1.86930471639246 -0.01018010610664933
0001e0 f9 bc 7c 4a 48 1a 0b 40 20 8c 11 15 70 be fd 3f
       3.3878331965748854 1.8589936087598815
0001f0 ea 18 71 f4 bf 3e e0 bf 1e fc 5e 7e d1 a9 b9 3f
       -0.5076598905805245 0.10024747214536986
000200 ab 83 45 8a 4d 82 bf 3f ac 08 e3 3b b0 1b cb bf
       0.12308201432962444 -0.2117824833313241
000210 33 40 cc 96 fd 29 d5 bf 69 8b 26 9f 28 18 d9 3f
       -0.3306879017482089 0.39209952871367776
000220 b8 09 da 86 fa e8 f2 bf c5 35 72 fb 30 2a b2 3f
       -1.1818795459408715 0.0709562887079392
000230 50 50 58 a9 36 aa c6 bf e9 6b f3 51 03 a3 f7 3f
       -0.17706950444028502 1.4772980881887128
000240 22 08 9f b1 18 a4 ac 3f 40 b3 9e 51 e6 42 94 3f
       0.055939456636693544 0.019786452037510616
000250 c5 c4 e8 6f 76 4b cd 3f 0d df c6 ff 1c bf d1 3f
       0.22886543716734856 0.2772896287747109
000260 41 2e 34 77 a7 f1 e4 bf b4 74 9a f8 39 c4 dd 3f
       -0.6544987991523571 0.4651017120139145
000270 73 0f 52 e6 14 4a 55 3f a7 d9 23 9d b0 0d e5 bf
       0.0012994007204562813 -0.6579211300984767
000280 04 36 d7 4b 17 ae fc 3f a2 5e 42 37 32 67 e1 bf
       1.792502685787782 -0.5438471869737962
000290 bb 5b f4 3b e2 8a d5 bf 88 ab e3 2f 7b ed 0c 40
       -0.33660178999837925 3.6159576169351944
0002a0 f2 9c 63 4b 1f 0e 10 c0 e3 e2 d5 2a 30 f3 e1 bf
       -4.013791254000568 -0.5609360539084175
0002b0 5e c7 1d ae 01 58 21 40 5b 33 f5 05 2a 14 23 c0
       8.671887818465333 -9.539383112127032
0002c0 b7 bf e8 8c 8d c1 b3 3f 9d 6a 2d 73 c2 b0 30 40
       0.07717213335194982 16.690467070186617
0002d0 04 a4 eb 47 cd 2f b9 3f f4 77 66 0f 38 7c a8 bf
       0.09838564878340611 -0.04782271564475585
0002e0 db e7 6d ce af 79 c0 bf a9 13 87 c9 8c 96 9b 3f
       -0.12871358470493885 0.02694148998286364
0002f0 bb c0 e5 cd 71 e6 b9 bf 52 0c df 65 4b 5b a6 3f
       -0.10117255474847557 0.043665271935900876
000300 d6 23 59 9f e8 85 b3 3f 5f 04 93 b0 97 98 aa bf
       0.07626203432404507 -0.05194543867538281
000310 62 8e 13 cb eb 1c c6 bf 4b 4e 51 0e 1f 42 dd 3f
       -0.17275760093535825 0.4571607246227571
000320 34 e9 f8 8b a6 de dc bf 1f 41 79 0d 64 40 e9 3f
       -0.4510895125310015 0.789110208812449
000330 08 37 a6 bf d2 96 ef bf 08 e1 a5 24 2e 2f e1 bf
       -0.9871610396528192 -0.5370093074589315
000340 96 a6 c8 62 08 d6 f5 3f db 90 57 5d 07 ac ef bf
       1.3647540911428329 -0.9897496054732317
000350 39 b8 84 78 45 a5 d4 bf 61 03 ca ed fe e2 d0 3f
       -0.3225873639047481 0.2638547250899617
000360 ef 6f 09 4a 17 c8 dd bf e0 d0 f4 76 d3 a8 e1 3f
       -0.46533758382952234 0.5518586467137787
000370 cd 5a 56 e7 62 ab c7 bf e7 72 1f 2c 32 50 c0 bf
       -0.1849177960945866 -0.12744738726077928
000380 98 a2 39 83 a5 4d 88 3f f4 1a 70 ab 6d 6e be 3f
       0.0118668490096792 0.11887250361915475
000390 c7 56 e3 11 39 5d d3 bf e1 8b 38 8e fc b5 d7 3f
       -0.3025648760497969 0.3704825772167038
0003a0 f9 6f 51 90 fb 3d cb 3f 64 43 1b 08 c1 7b d5 3f
       0.21282906100066137 0.3356783465542803
0003b0 02 3e 3c 8d 4b 7c e4 bf e2 6a da e2 fe 99 c8 3f
       -0.6401727446081511 0.19219957424942097
0003c0 15 0f d2 7e 0d 9b d1 bf 0e 85 25 64 71 03 ad 3f
       -0.2750886667711126 0.05666689250461775
0003d0 20 b2 4f f9 fa cf dc 3f 30 03 ef d6 58 8a b4 3f
       0.4501941141777781 0.08023600814250353
0003e0 bf 23 33 6a 7e 9f d2 bf f5 f4 5c 3e 86 e3 bc bf
       -0.2909847294909546 -0.11284674665963108
0003f0 68 3e 58 27 6c d9 a0 bf fb 28 39 bc 72 6e d0 3f
       -0.032908801844425295 0.25674122220210877
000400 f1 bf 28 a2 c2 f9 ba 3f 56 4e 3e a9 c5 fb bd 3f
       0.1053735395332749 0.117122987574754
000410 9c 7b 04 0c 52 ca b2 bf 43 94 a5 43 ef 5f d1 3f
       -0.07339966576954143 0.2714803848851412
000420 19 58 82 aa b1 68 c2 bf cc fe f1 81 e8 4b 9f bf
       -0.14382000756876392 -0.030563004428130466
000430 b0 f4 3e 1b 89 b1 b9 3f 18 1b 7f 3f 20 8c cb bf
       0.10036522784408208 -0.2152138052026309
000440 85 0c a0 3f e9 b3 b1 bf d9 50 3d 9c 28 be 9a 3f
       -0.06915147593831435 0.026116022621253208
000450 78 6b 7f 99 2a ef c1 bf 53 29 65 9b d6 c2 a6 3f
       -0.14011127943998836 0.04445524832643124
000460 fd 7a ee 62 2a e6 ae bf 33 ce 4a 65 5f bc a1 3f
       -0.06034977395687766 0.03464029418446692
000470 e4 2a 39 99 34 19 d2 bf e0 13 30 95 f7 44 ac 3f
       -0.2827884193726915 0.05521367736950089
000480 ca e9 1a 60 98 9b cc bf 03 f4 4a 83 85 10 b3 bf
       -0.2234983891738252 -0.07447084861173896
000490 6e b7 82 ea 78 24 d2 3f 67 04 53 7b 2f 2b 87 3f
       0.2834760942595186 0.011312838507708102
0004a0 54 a4 8e 9a 42 cb be bf 99 56 3f 2e 77 4c af bf
       -0.12028900407189386 -0.06113026084464685
0004b0 42 75 30 21 c4 8b be bf 14 4b 31 3a b6 9f c1 3f
       -0.11932016191754705 0.13768651811059185
0004c0 6b ac 89 86 22 db cf bf 4a 1b ef b4 92 20 ad 3f
       -0.24887496537425888 0.056889137827559624
0004d0 2f a4 f0 20 29 7f c2 3f 27 02 6a cb ba fb d0 bf
       0.14450563534163183 -0.2653643595186019
0004e0 68 ea 55 db 0e 6a c4 bf 4d 51 a1 b9 db c4 7d bf
       -0.1594866343474053 -0.007267816830865148
0004f0 97 e3 9e 73 bf 13 d2 3f 0a 07 04 72 2f a2 aa 3f
       0.2824553135974894 0.0520186258963929
000500 1e 63 6f 10 6e 16 d6 bf 3c 9b ee 5e 3b 22 d2 3f
       -0.34511901478758655 0.283339350421034
000510 14 f8 39 cb 95 4c 35 40
       21.299160672810174
